code/param_ques_2b.npy (npy, 161312 bytes, 1 tensors)

array (column-major) f4 [300, 100]
00000000: d126 453d c735 c13c 7053 7ebb e4a6 aabb
00000010: 3775 abbb 4dc3 59bc 8fb9 c439 d225 e63c
00000020: bb29 ab3c 1311 06bc 7df0 ecba 38d2 dabb
00000030: 4bb2 0ebc 280b 96bc 72ea f3bb 6a9c 1ab9
00000040: 2b48 39bc 1d70 1cbc bb3a 87bc 3249 76bc
00000050: b2db 7ebc b98a fabc 7534 4abb 72ac ae3c
00000060: 5a89 303c 2962 ef3b dff9 193c b396 f8ba
00000070: 6c7f b1bc db3e f03b d268 15bb c29b b1bb
00000080: 5c33 293c d2d7 9e3c c466 90bc 30d4 92bc
00000090: 6766 8a39 5db0 8f3c dba3 d73c 4b42 b73c
000000a0: dd02 013d 795f f63c 6e06 42bb cfed 15bc
000000b0: 4b08 8f3c 131a b33b 7b07 28bb 5fdb 653c
000000c0: 5af7 0a3c cc1f 2dbb 5c2a f1bb ceff 14bb
000000d0: 4bb6 ad3a cf97 e5bb 38bc d3bc ee56 31bc
000000e0: f7cc 9d39 b4f6 acbb 1714 39bb fe87 02bb
000000f0: 1a21 0ebc ffbc 9dbc 4d65 76bc 31ab 1fbc
00000100: b5d2 e43a 41a1 573b fa70 65bc f403 83bc
00000110: 00e1 a7bb 5522 3d3d a037 aa3d b2c4 a63d
00000120: bb2a 3a3d 6495 b2bb 83b8 a3b8 369e 183d
00000130: e455 513c fc74 28bc 8a5d 7c3c 65b3 533c
00000140: d19a 1bbc 4c7d d63a 55d3 0bbc 82da 19bc
00000150: c409 c9ba 7a39 61bb 156d 47bd 5334 63bd
00000160: fb36 48bd 4d54 35bd 0dd1 cfbc eb37 83bc
00000170: 7026 ffbb 4cab cabb 1adb c539 2e0b d33c
00000180: 63b2 073d 14b8 f13c 5af5 613c 81e2 1abc
00000190: bfda b83b 209f f73b fa48 563c 69ad 943b
000001a0: 769c 933b d246 883b 1713 bc3b 8777 4d3c
000001b0: 9cf1 9d3c 74c7 963c 855f 63bb 6e21 a13b
000001c0: 3778 32bb 3a4d 6d3c 96b3 da3a 3e1e 0a3c
000001d0: d90f 4e3c f3f0 b63c e388 9b3c a4d7 a73c
000001e0: 7889 c23c b028 573b efd4 3f3c 75a7 833c
000001f0: c1cc 403c 4002 913c 7178 16ba ebd9 f73c
00000200: f585 363d 0faf bc3c 2230 27b9 0690 843b
00000210: c232 c63c 6d88 4b3a 5940 49bc 7225 9ebc
00000220: 9c44 27bd 86fa 73bd 3709 aabd dab3 49bd
00000230: 978a cebc 2343 45bd 838c 16bd 1975 06bd
00000240: 7fc7 99bc a111 fabc ec00 ecbc a2e1 aebc
00000250: 748e a0bb 9510 473c 0ba9 c33c 0d11 0e3d
00000260: f8af a33c e1e6 513c 1dc3 753c 706a 08bc
00000270: 88fd 64bb 3687 d13a e12a 623c ce61 e13b
00000280: 4ede fe3b 0a3e 56bc c7c1 14bd 7293 55bd
00000290: 23e2 81bd 3966 13bd adc8 d03b fcf1 be3c
000002a0: 5a6c c93c be41 113d 364a f13c 5a82 7a3c
000002b0: 5bf7 7f3b 70ba 4ebc 4693 5fbb 3648 a63b
000002c0: b2ca a4bb 15e3 933c e8b3 d43b 7cbd 26bc
000002d0: 03b2 a43b 187c 963b 63cc 8eba 4a86 423c
000002e0: 7041 50bc 7e1d 33bb 21ee 593c 9c69 d23c
000002f0: 16dd f93b 57e8 683c 6819 7b3c 9927 853c
00000300: f30f 9e3c fa41 393c 9af6 f73b af52 59bc
00000310: 1488 bdbc 97f9 f9bc c4b3 93bc a464 93bc
00000320: ecea 73bc 2653 a1bc d763 01bd 4cf8 1fbc
00000330: 3fe2 cd3c 85da f93c e591 c03c 22d8 fb3c
00000340: b13f 583d 8b37 623d f410 043d 0a1b c73c
00000350: 1c7d 163c 18d4 b8bc 708b 0fbd 3c35 1ebd
00000360: 956c 39bc e167 ec3c a6cf 413d b79f 4f3c
00000370: 16b1 cd3c b4a2 563c 0f50 693b c4f7 923c
00000380: 4c8b 3dbc e353 a1bc 353c 2dbd 6e26 52bd
00000390: 5866 78bd b686 6abd b053 91bc 0717 bdb9
000003a0: 8ac2 613c 7760 b03c 280b c03c d538 da3c
000003b0: 3ca5 20ba 35ea 95bc 53c0 6ebb 2170 b23c
000003c0: fa98 20ba b68a 8abc 97b9 08bb fd3b 8e3c
000003d0: 523e 98bb 1cb0 49bc 8672 ee3a 42ed 683c
000003e0: ba92 0b3c 09b0 31bc ecfb b1ba 9fe6 0f3b
000003f0: cf2d 9fbc decb afbc bdc2 95bc 1cd7 05bd
0.04813272 0.023585213 -0.0038807057 -0.005207883 -0.005232479 -0.013291192 0.00037522285 0.028094206
0.020893922 -0.008182782 -0.0018077042 -0.006677892 -0.008709501 -0.018315867 -0.0074437195 -0.00014744853
-0.01130871 -0.009548214 -0.016507497 -0.0150321 -0.015555309 -0.030583726 -0.003085402 0.021322463
0.010774935 0.007305403 0.009397953 -0.001896581 -0.021667205 0.0073317117 -0.0022798073 -0.005420179
0.010327186 0.01939002 -0.017627127 -0.017923445 0.00026397707 0.017540151 0.02632325 0.022370478
0.03149687 0.030074822 -0.0029605883 -0.009150936 0.01746001 0.005465755 -0.0025639224 0.014029353
0.008481825 -0.0026416657 -0.007359786 -0.002273548 0.001325318 -0.0070066224 -0.025846586 -0.010823948
0.00030098084 -0.0052784327 -0.0028240734 -0.0019917483 -0.008674884 -0.01925516 -0.0150388 -0.009745405
0.0017457815 0.0032902511 -0.0140039865 -0.015993096 -0.0051232576 0.04617532 0.08311391 0.081429854
0.045450907 -0.0054499377 -7.806814e-05 0.037260257 0.012776826 -0.0102817975 0.015403161 0.012921189
-0.00949736 0.0016364246 -0.008534272 -0.009390475 -0.0015337993 -0.0034366534 -0.048688013 -0.055469822
-0.04888056 -0.04426985 -0.025368238 -0.016017875 -0.0077865645 -0.006184971 0.0003773801 0.025762167
0.033129107 0.02950672 0.0137914065 -0.009453417 0.005641311 0.007556811 0.013078922 0.0045372737
0.0045047356 0.004158833 0.0057395804 0.012540705 0.019280247 0.018405654 -0.0034694385 0.004917315
-0.0027232298 0.014483744 0.0016685601 0.008430062 0.012577021 0.02233169 0.018986171 0.020488568
0.02374719 0.0032830648 0.011708482 0.01607106 0.011767567 0.017701268 -0.0005739993 0.030255279
0.044561345 0.023032693 -0.00015944292 0.0040454892 0.024194125 0.00077641645 -0.012283408 -0.019304965
-0.040836915 -0.05956509 -0.08302539 -0.049243785 -0.02521257 -0.04815973 -0.036755096 -0.032826517
-0.018771885 -0.030525984 -0.028809033 -0.021347824 -0.0048997942 0.01214995 0.023884317 0.03468423
0.01998137 0.0128113935 0.015000132 -0.008326158 -0.0034941155 0.001598573 0.013804168 0.0068781143
0.0077779656 -0.013076315 -0.036317613 -0.052142568 -0.0634196 -0.03598616 0.0063715787 0.023308747
0.024587799 0.035463087 0.029454332 0.015289867 0.0039057347 -0.012617692 -0.0034114881 0.005074526
-0.005029046 0.018052617 0.006491173 -0.0101770125 0.0050261035 0.00459243 -0.0010894652 0.011872837
-0.012710914 -0.002733081 0.013301403 0.025685124 0.0076252325 0.01421555 0.015325882 0.016254233
0.019294715 0.011307234 0.007567239 -0.013264342 -0.023136176 -0.030514522 -0.018030055 -0.017992325
-0.014887553 -0.019692969 -0.031589355 -0.009763788 0.025132297 0.030499706 0.023507068 0.030742709
0.052795116 0.05522875 0.03224273 0.024304885 0.009185102 -0.022562072 -0.035045087 -0.038624987
-0.011317392 0.028858127 0.04731717 0.012672356 0.025108855 0.013100315 0.0035600697 0.01794041
-0.0115688555 -0.01969332 -0.042293746 -0.05130618 -0.060644478 -0.057257377 -0.0177401 -0.00036066046
0.013779292 0.021530373 0.02344282 0.026638428 -0.00061281375 -0.018300155 -0.0036430552 0.021781983
-0.0006126311 -0.016911846 -0.0020862573 0.017362589 -0.004646101 -0.012310054 0.001819209 0.014216723
0.008518869 -0.010845193 -0.0013579107 0.002195753 -0.019431023 -0.021459516 -0.018281335 -0.032675847
